tools/pytorch-quantization/tests/quant_rnn_test_vectors.pt (torch_old, 6709 bytes, 39 tensors)

input f4 [1, 2, 2]
0	0xbec55225	-0.38539234
1	0xbeb3d55f	-0.35123727
2	0x3eb884f4	0.36038935
3	0xbf96a8c0	-1.1770248

hidden f4 [1, 2, 2]
0	0x3eb735a8	0.35783124
1	0xc007ffa7	-2.1249788
2	0x3e9cf049	0.30652073
3	0xc024f832	-2.5776486

out f4 [1, 2, 2]
0	0x3dcf3a21	0.10118509
1	0xbf95f0c0	-1.1714096
2	0x3cac1d56	0.021010082
3	0xbfb2232b	-1.3916982

hout f4 [1, 2, 2]
0	0x3dcf3a21	0.10118509
1	0xbf95f0c0	-1.1714096
2	0x3cac1d56	0.021010082
3	0xbfb2232b	-1.3916982

weight_ih_l0 f4 [6, 2]
0	0xbee3fa99	-0.44527128
1	0xbede5ad2	-0.43428665
2	0xbf02cfd4	-0.5109837
3	0xbe8279ff	-0.254837
4	0x3e01b4eb	0.12666671
5	0x3ebcac66	0.3685028
6	0xbdb7b946	-0.08970885
7	0x3ebbae12	0.36656243
8	0x3e87c4fc	0.26517475
9	0x3ecf1c39	0.4045122
10	0xbcbe8960	-0.023258865
11	0x3e881f1e	0.2658624

weight_hh_l0 f4 [6, 2]
0	0xbf0da468	-0.5532899
1	0x3e5b76c0	0.21432018
2	0x3efd276e	0.49444145
3	0x3ec74de0	0.389266
4	0x3f1fa0b5	0.62354594
5	0xbed4e0d9	-0.41577795
6	0xbee51765	-0.4474441
7	0xbeb4f359	-0.3534191
8	0xbee2756b	-0.44230208
9	0x3ecd55b8	0.4010446
10	0xbd08839a	-0.03332863
11	0xbf15b4b7	-0.58478874

input f4 [1, 2, 2]
0	0xbf116227	-0.56790394
1	0x3fb4622e	1.4092462
2	0xbf8c94fa	-1.0982964
3	0xbd677a5f	-0.056513187

hidden f4 [1, 2, 2]
0	0xbebdb5a8	-0.37052655
1	0x3f160a9f	0.58609957
2	0xbf935636	-1.1510684
3	0xbfa4a64b	-1.2863249

out f4 [1, 2, 2]
0	0xbe3b3b07	-0.18284236
1	0x3ee957bb	0.45574746
2	0x3ed528f3	0.41632804
3	0xbf85059d	-1.0392338

hout f4 [1, 2, 2]
0	0xbe3b3b07	-0.18284236
1	0x3ee957bb	0.45574746
2	0x3ed528f3	0.41632804
3	0xbf85059d	-1.0392338

weight_ih_l0 f4 [6, 2]
0	0xbe813568	-0.25236058
1	0x3f01d730	0.50718975
2	0x3e821392	0.25405556
3	0xbe08a3f7	-0.13343798
4	0x3ef03327	0.46914026
5	0x3ef9fc06	0.4882509
6	0xbf302423	-0.6880514
7	0x3db318c2	0.087449566
8	0xbef9f303	-0.48818216
9	0xbe6b1762	-0.22958139
10	0xbe92e256	-0.28688306
11	0xbc0db75a	-0.008649671

weight_hh_l0 f4 [6, 2]
0	0x3e00eb4d	0.1258976
1	0x3f2b2f13	0.66868705
2	0x3e9d2b23	0.30696973
3	0xbdd04adb	-0.101705275
4	0x3eaa2452	0.33230835
5	0x3ef48f74	0.47765696
6	0xbe94c1d2	-0.29054123
7	0xbf21c007	-0.63183635
8	0x3f20e933	0.62855834
9	0xbf0609be	-0.52358615
10	0xbe56ce2b	-0.20977084
11	0x3ecf68d3	0.40509662

bias_ih_l0 f4 [6]
0	0xbecb180b	-0.3966678
1	0x3efc6aa2	0.49300104
2	0xbdea0aa3	-0.1142781
3	0x3de2cb36	0.11073916
4	0x3ed8ef07	0.42369863
5	0x3c8ffe02	0.017577175

bias_hh_l0 f4 [6]
0	0xbe921c2d	-0.2853712
1	0xbedfaca8	-0.43686414
2	0x3e5d3a3c	0.21604246
3	0xbebc4f4b	-0.36779246
4	0x3e87d041	0.26526073
5	0x3de16877	0.11006253

input f4 [1, 2, 2]
0	0x400e7959	2.2261565
1	0x3eb7f651	0.35930112
2	0xbf2a647b	-0.6655957
3	0x3f4f35bf	0.80941385

hidden f4 [1, 2, 2]
0	0x3e91115a	0.2833355
1	0xbfca1a8e	-1.5789354
2	0xbe1cd24d	-0.15314598
3	0xbfb50d3b	-1.4144663

out f4 [1, 2, 2]
0	0x3e945018	0.28967357
1	0xbf9d4edd	-1.2289692
2	0xbdaa5ea9	-0.08318836
3	0xbe3321cc	-0.17493361

hout f4 [1, 2, 2]
0	0x3e945018	0.28967357
1	0xbf9d4edd	-1.2289692
2	0xbdaa5ea9	-0.08318836
3	0xbe3321cc	-0.17493361

weight_ih_l0 f4 [6, 2]
0	0x3ea69963	0.325389
1	0xbeee635b	-0.46560177
2	0x3e8d937a	0.27651578
3	0x3e5b7ac5	0.21433552
4	0x3f2d7a21	0.6776448
5	0x3d0ea6f9	0.034827206
6	0x3e9fb2a0	0.31190968
7	0xbf20e361	-0.6284695
8	0x3ec4b4a4	0.38419068
9	0x3f2a244d	0.6646164
10	0xbf0af64c	-0.5428207
11	0x3dc3b207	0.095554404

weight_hh_l0 f4 [6, 2]
0	0x3ed4459c	0.41459358
1	0x3de0f299	0.10983772
2	0x3dafde8c	0.08587369
3	0xbdab10e4	-0.08352831
4	0xbd594768	-0.053046614
5	0xbecfd0d0	-0.40589
6	0xbe3bfe1b	-0.18358652
7	0xbe3a8173	-0.18213443
8	0xbf072877	-0.5279612
9	0x3f1ba65a	0.6080071
10	0xbc81c6f8	-0.015841946
11	0xbf1176c0	-0.56821823

input f4 [2, 2]
0	0xbf05aca7	-0.5221657
1	0x3f84c11d	1.0371433
2	0x3f283149	0.65700203
3	0xbeb34a00	-0.35017395

hidden f4 [2, 2]
0	0xbea1b6fe	-0.31584924
1	0xbf1e7c4d	-0.6190842
2	0x3c42590a	0.011862049
3	0x3e97f67a	0.29680234

out f4 [2, 2]
0	0xbe57142d	-0.2100379
1	0xbe5ad98e	-0.21372053
2	0xbe122c5c	-0.14274734
3	0x3d479842	0.04872919

weight_ih f4 [6, 2]
0	0x3cd90e92	0.026496205
1	0x3eaf5fef	0.3425288
2	0x3e966e70	0.29381132
3	0x3da597e4	0.080856115
4	0xbf1560c7	-0.58350796
5	0x3f2054b8	0.6262927
6	0x3ebe9bba	0.37228185
7	0x3ec68f90	0.38781404
8	0xbf0b291a	-0.5435959
9	0xbeba8cb1	-0.36435464
10	0xbd69767a	-0.056997754
11	0x3ec54325	0.3852779

weight_hh f4 [6, 2]
0	0xbe876508	-0.26444268
1	0xbf3315ac	-0.69954944
2	0x3f269bbb	0.65081376
3	0x3ecceda2	0.4002505
4	0xbec7f628	-0.3905499
5	0x3ec8e933	0.39240417
6	0x3ea5315f	0.3226423
7	0xbf223be4	-0.63372636
8	0x3e0dc666	0.13845214
9	0xbe843b47	-0.25826475
10	0x3ea6c387	0.3257105
11	0xbe244c7a	-0.16044798

input f4 [2, 2]
0	0x3e24fcb7	0.16112028
1	0xbc16c72c	-0.00920276
2	0x3eb1e8ec	0.34748018
3	0x3dd3aa41	0.10335208

hidden f4 [2, 2]
0	0x3fd18c80	1.6371002
1	0x3fb50637	1.4142522
2	0xbcfbf026	-0.03075416
3	0xbf9714ca	-1.1803219

out f4 [2, 2]
0	0x3f2d3f76	0.6767496
1	0x3f239919	0.63905483
2	0x3e0c1fb5	0.1368397
3	0xbea652e8	-0.32485127

weight_ih f4 [6, 2]
0	0x3f1632f8	0.5867152
1	0xbe3989c4	-0.1811896
2	0x3f1b58af	0.60682195
3	0x3eee7d6f	0.46580073
4	0xbf0ba299	-0.5454498
5	0x3ef1d7b7	0.4723489
6	0x3e2d1771	0.16903473
7	0x3f0d55e3	0.5520918
8	0x3ecaf262	0.39638048
9	0xbe805452	-0.2506433
10	0xbddb17cc	-0.10697898
11	0x3da2701c	0.079315394

weight_hh f4 [6, 2]
0	0xbf2cb629	-0.67465454
1	0xbe079d87	-0.13243686
2	0x3ec415c6	0.38297862
3	0xbf1fbf19	-0.62400967
4	0xbe9b6d27	-0.30356714
5	0xbdd12cdd	-0.10213635
6	0xbecc973e	-0.3995914
7	0x3f28848a	0.6582724
8	0xbf2ea7a7	-0.6822457
9	0xbd8586ef	-0.06519877
10	0xbee3c496	-0.4448592
11	0xbeb5513b	-0.35413536

bias_ih f4 [6]
0	0x3f1e487e	0.61829364
1	0xbef44505	-0.47708908
2	0x3c74a253	0.014931279
3	0x3f1ba5ed	0.6080006
4	0x3de3688b	0.11103924
5	0xba37431f	-0.0006990898

bias_hh f4 [6]
0	0x3ea02f00	0.31285858
1	0x3f17860f	0.5918893
2	0x3f2aa496	0.6665739
3	0xbee1fd90	-0.44138765
4	0x3e65427b	0.22388642
5	0xbe32dec1	-0.17467786

input f4 [2, 2]
0	0xbc9a60e6	-0.018845033
1	0xbf6728fe	-0.90296924
2	0xbfbcbd4f	-1.4745272
3	0xbeb89921	-0.36054328

hidden f4 [2, 2]
0	0x3f34b965	0.7059539
1	0x3fbb6581	1.4640352
2	0xbd8608d8	-0.065446556
3	0xbf261e06	-0.6488956

out f4 [2, 2]
0	0x3efda038	0.495363
1	0x3f05b24e	0.52225196
2	0x3b6c481c	0.0036053723
3	0xbec25246	-0.37953395

weight_ih f4 [6, 2]
0	0xbe185d1a	-0.14879265
1	0xbe08d973	-0.133642
2	0xbd849ccb	-0.064752184
3	0x3f3401a8	0.7031503
4	0x3e63de74	0.22252828
5	0xbe87447a	-0.2641943
6	0x3f07e218	0.53079367
7	0xbec25a6c	-0.3795961
8	0xbf082bdb	-0.5319192
9	0x3f150199	0.5820556
10	0x3e00b086	0.12567338
11	0x3df5bf11	0.11999334

weight_hh f4 [6, 2]
0	0x3f190ed9	0.5978828
1	0xbe762f99	-0.24041595
2	0x3e33274c	0.1749546
3	0x3ea54912	0.3228231
4	0x3f05cc43	0.52264804
5	0xbf32703b	-0.697025
6	0xbeec0943	-0.46100816
7	0xbf0509d2	-0.5196811
8	0x3f031828	0.51208735
9	0x3ee028a4	0.43781006
10	0xbf263a41	-0.6493264
11	0x3f02a781	0.5103684

bias_ih f4 [6]
0	0x3f0dbb3f	0.5536384
1	0x3d0af3cd	0.033923913
2	0x3e79b40b	0.24385087
3	0xbd3f0bf8	-0.046642274
4	0xbe49b1d2	-0.1969674
5	0x3e953725	0.29143634

bias_hh f4 [6]
0	0x3f0e1e06	0.5551456
1	0x3e946d14	0.2898947
2	0x3f2faf69	0.6862703
3	0xbdfa1b91	-0.12212289
4	0x3e2b1e42	0.16710761
5	0xbeb02306	-0.3440172
