tools/Polygraphy/tests/models/conv.onnx (onnx, 4259 bytes, 1 tensors)

b f4 [4, 16, 4, 4]
0	0x40319192	2.77451
1	0xbf780681	-0.96884924
2	0xc0336fb4	-2.8036928
3	0x402dce07	2.7157
4	0x40171195	2.3604481
5	0xc00379f4	-2.0543184
6	0x4034ad78	2.8230877
7	0xbfdce173	-1.7256302
8	0xc02a7f0f	-2.664005
9	0xc0098837	-2.148939
10	0x3ffb8550	1.9650059
11	0x3fb80030	1.4375057
12	0x403c2314	2.939641
13	0x40055ede	2.0839152
14	0x400f1449	2.235613
15	0x402c6150	2.6934395
16	0x401b5517	2.4270685
17	0xbf87be83	-1.0605015
18	0xc03308f5	-2.7974217
19	0xc001a902	-2.0259404
20	0xbfa6906e	-1.3012826
21	0x3feb16dc	1.8366351
22	0xbeda37a3	-0.42620572
23	0xbeeedf1f	-0.46654603
24	0x3f104d30	0.5636778
25	0x40293a14	2.6441698
26	0x3fc09e98	1.5048399
27	0x3f1f36db	0.6219308
28	0x3fd181ea	1.6367772
29	0x403c752f	2.9446523
30	0xbfbe7557	-1.4879559
31	0x403707ae	2.8598437
32	0xbf454ee4	-0.770735
33	0x3ec95b77	0.39327595
34	0xbed78778	-0.42095542
35	0xbff821e8	-1.9385347
36	0xbfc159be	-1.5105512
37	0xbf0cc6c6	-0.54990804
38	0xbff2f47d	-1.8980862
39	0xc02ef245	-2.733537
40	0x3fcfc82a	1.623296
41	0xc015bd66	-2.339685
42	0xbf9b6b55	-1.214213
43	0xbf768ef9	-0.9631191
44	0x400aec4a	2.170672
45	0x3fcb1ae9	1.5867587
46	0x3fdc4e97	1.7211484
47	0xbf6287ff	-0.88488764
48	0x3fc0b56c	1.5055366
49	0xbfa1a561	-1.2628595
50	0x400dff42	2.2187047
51	0x4028a3e1	2.6350024
52	0x4027bd34	2.620923
53	0xbec42b25	-0.38314167
54	0x400eb5d4	2.229848
55	0x3ec3a753	0.38213596
56	0x3f7c2bc1	0.98504263
57	0xbf17e99e	-0.59340847
58	0x401e2a4c	2.4713316
59	0x3e2c4d1a	0.16826287
60	0x3edabf65	0.42724147
61	0xc031183d	-2.7671044
62	0xc010bae6	-2.2614074
63	0xbe5a8798	-0.21340787
64	0x3ebd41ef	0.36964366
65	0x3ff251b7	1.8931187
66	0x40287f20	2.632759
67	0x3f897221	1.0737954
68	0x40156614	2.3343554
69	0xc01c2cb0	-2.4402275
70	0xbf16b9e3	-0.5887739
71	0x3f80cf0d	1.0063187
72	0x40026672	2.0375028
73	0xbf88f3dd	-1.0699421
74	0x3eff3bdb	0.49850354
75	0xbe2e0dce	-0.16997454
76	0x401de4ee	2.4670978
77	0x3e8cac07	0.27474996
78	0x3eec69e0	0.46174526
79	0x3fcd6c54	1.6048684
80	0x3fda179e	1.7038457
81	0xc00d8f95	-2.2118886
82	0x3f8ff29e	1.1245916
83	0xc021a813	-2.5258834
84	0xbdcca168	-0.09991723
85	0x400f1f86	2.236299
86	0xbfddb90d	-1.7322098
87	0x40339924	2.806222
88	0xc01a694d	-2.412677
89	0x40289db6	2.634626
90	0x4017808d	2.367221
91	0xc00f3f3d	-2.2382348
92	0xbfa3bd72	-1.2792189
93	0x3faed979	1.3660117
94	0xbf98e146	-1.1943748
95	0x3e3316a4	0.17489105
96	0xbe1992f8	-0.1499747
97	0x3fdc63ed	1.7217995
98	0x40212c73	2.518338
99	0x3d96c23b	0.07361265
100	0x3f4992ff	0.78739923
101	0xbf9f4019	-1.2441436
102	0x3f7696e5	0.96323997
103	0xc007d3f9	-2.1223128
104	0xbff4f520	-1.9137306
105	0x3f355d9a	0.7084595
106	0xc03bb40b	-2.932864
107	0xbfdef7ae	-1.7419336
108	0x401abdd3	2.417836
109	0xbf1698e7	-0.5882706
110	0xbf833c14	-1.0252709
111	0x3daade45	0.08343176
112	0xbf233f0d	-0.6376808
113	0x4024eb6f	2.5768697
114	0x4004c2b6	2.0743842
115	0xbfa10b8a	-1.2581646
116	0xbffdec45	-1.9837729
117	0xc032bed8	-2.7928982
118	0x400ba00f	2.1816442
119	0x4007e01b	2.1230533
120	0xc032802d	-2.7890732
121	0xbfb924b7	-1.446433
122	0x400ab781	2.1674502
123	0xbf80ff30	-1.0077877
124	0x3fe9bb1b	1.8260225
125	0xbf271735	-0.65269786
126	0xbf4fd22d	-0.8118008
127	0xbf4612d0	-0.77372456
128	0x3f18f23a	0.5974461
129	0xbfe81d0c	-1.8133864
130	0x3ced06bb	0.028933873
131	0x3f7ec85b	0.9952447
132	0xbeef2792	-0.46709877
133	0x3ff986ae	1.9494226
134	0xbfc1a3b3	-1.5128082
135	0x3fd100bf	1.6328353
136	0x3f8ffd7b	1.1249231
137	0xbf15939a	-0.5842835
138	0xbfcc0f30	-1.5942135
139	0x403264b9	2.7873976
140	0xc02d88c8	-2.7114735
141	0xbfcb6551	-1.5890294
142	0x3f29dbbd	0.6635092
143	0x3f755c46	0.95843923
144	0xc00ab1dc	-2.1671057
145	0xc036f39c	-2.8586187
146	0xbdaf7e33	-0.085689925
147	0xbf8f4179	-1.1191856
148	0xc008f9cf	-2.140247
149	0xbf89ffe6	-1.0781219
150	0x3ded18bf	0.115769856
151	0x401fcf7d	2.497039
152	0xbff0decc	-1.8817992
153	0xbfc91731	-1.5710202
154	0x3f6d3230	0.92654705
155	0xbf3f31b9	-0.74685246
156	0xbfad047a	-1.3516991
157	0xbe63b469	-0.2223679
158	0x3f9d958e	1.2311265
159	0x3ef3b207	0.47596762
160	0xbf81b9c8	-1.0134821
161	0xc028efcf	-2.6396368
162	0x3fd656f6	1.6745288
163	0x3f6e1bf1	0.93011385
164	0xc03d08a7	-2.953653
165	0x3ff61c06	1.9227302
166	0x3c09854c	0.008393597
167	0x3fe2b4f3	1.7711471
168	0x3fe69122	1.8013041
169	0x3f92f54e	1.1481111
170	0xbe9e1956	-0.30878705
171	0x40235f63	2.552697
172	0x403c6038	2.9433727
173	0xbf603c50	-0.8759203
174	0xc0162bbd	-2.3464196
175	0x3f939618	1.153018
176	0x402500c4	2.5781717
177	0x3fee5907	1.8620919
178	0xc01d289c	-2.4556036
179	0xbe5fd2ad	-0.2185771
180	0x3f858d30	1.0433712
181	0xc00d5d3a	-2.208815
182	0xc0009ebc	-2.0096884
183	0xc0196955	-2.397054
184	0x40022fa4	2.0341578
185	0x4019d568	2.4036503
186	0x3f9de861	1.2336541
187	0x3e89c7db	0.2691029
188	0xbff34043	-1.9003986
189	0xbf1cd5d0	-0.6126375
190	0x3f11a1d6	0.5688757
191	0xc02d4726	-2.7074676
192	0xbfd25e27	-1.6434983
193	0x403ca7e3	2.947747
194	0x3e465fc8	0.19372475
195	0x3f8cb239	1.0991889
196	0xc0194faf	-2.3954885
197	0x3f2b9625	0.6702598
198	0xbfe08ec4	-1.7543569
199	0x401521d8	2.3301907
200	0x401cd109	2.4502585
201	0xc02fd6fc	-2.7474966
202	0xbfab5180	-1.3384247
203	0x3f66a5f3	0.9009697
204	0x403ffc8e	2.9997897
205	0x403500eb	2.828181
206	0x3ff85145	1.9399801
207	0xbf8db6fa	-1.1071465
208	0x3faf80f9	1.3711234
209	0xbfad9c9b	-1.3563417
210	0xbff375f1	-1.9020368
211	0x3d8e1d96	0.06939237
212	0x403b571a	2.9271913
213	0xc0235677	-2.5521524
214	0x3ff31903	1.8992008
215	0xbe982575	-0.29716077
216	0x403a1c7b	2.9079883
217	0xbf7d5a20	-0.98965645
218	0xbfb4017d	-1.4062954
219	0x4008d138	2.1377697
220	0x40381bae	2.8766894
221	0x3fe46f95	1.7846552
222	0xbf5a3b74	-0.8524697
223	0x4023f51a	2.5618348
224	0xbff14257	-1.884837
225	0x3f942e88	1.15767
226	0xbf1a692e	-0.6031674
227	0x3f161654	0.5862782
228	0xbfe888ee	-1.8166788
229	0x3ffe8238	1.988349
230	0xc0091b1a	-2.1422791
231	0x3f9787ba	1.1838295
232	0x400ee651	2.2328074
233	0xbf335f37	-0.7006716
234	0x3e981625	0.29704395
235	0xbdfb23f1	-0.12262715
236	0xbf8f02b7	-1.1172704
237	0xbf86479a	-1.0490601
238	0x3f023481	0.50861365
239	0x402ab91c	2.6675482
240	0x3f2d8121	0.6777516
241	0xbfd4973e	-1.6608655
242	0x40302f42	2.7528844
243	0x3f339b70	0.70159054
244	0x3f542767	0.82872623
245	0xc0301a6e	-2.7516131
246	0x402c815e	2.695396
247	0x3fa46a5a	1.2844956
248	0x3fa6e653	1.3039039
249	0xbf1a0206	-0.6015934
250	0xc000d8a8	-2.0132236
251	0x401734a8	2.362589
252	0xbfc8618e	-1.5654771
253	0x401d7fb1	2.4609187
254	0x3f950813	1.1643089
255	0xbf5b2590	-0.8560419
