tools/Polygraphy/tests/models/matmul_2layer.onnx (onnx, 1393 bytes, 3 tensors)

1.weight f4 [8, 16]
000000 42 6a 4b be 30 0e 69 3e 6c fa 9e bd 36 88 39 3e
       -0.19864753 0.22759318 -0.07762608 0.18118367
000010 68 34 16 bd f8 f8 63 bd c0 b6 ce bd 78 05 6e 3d
       -0.036671072 -0.055657357 -0.100934505 0.058110684
000020 08 b6 f4 bd 50 22 a3 3c cc d0 53 3e 50 4d 82 3d
       -0.11948782 0.019913822 0.20685118 0.063624024
000030 66 68 24 3e 36 a4 54 be 10 b2 39 be 2a b2 30 3e
       0.1605545 -0.20765767 -0.18134332 0.17255464
000040 7c 36 11 3e b0 f9 e4 3c 00 df cb bb 04 07 9d 3d
       0.1418094 0.027951092 -0.006221652 0.07667354
000050 50 32 6c be a0 01 1a 3e 0e fc 17 be f4 b6 e0 3d
       -0.23066068 0.15039682 -0.14842245 0.109723955
000060 a0 9d e0 3d c0 9e 53 3e 10 1b 6b 3e b8 cd 2f 3d
       0.109675646 0.20666027 0.22959542 0.042920798
000070 a2 d7 1c be 22 6b 40 be 60 c6 e5 3c 60 78 9b bd
       -0.15316632 -0.18790868 0.028048694 -0.07591319
000080 38 45 03 3d 76 3d 2c 3e 3c b7 8e bd 6e 7a 09 3e
       0.032048434 0.1682032 -0.06968543 0.1342561
000090 18 f8 79 3e 54 39 e7 bd b8 63 34 bd f8 6b 45 be
       0.24411047 -0.11290231 -0.04404041 -0.19279468
0000a0 18 c8 e8 3d 18 ac 6b bd 70 0c 35 3d 5c 18 8f 3d
       0.1136629 -0.05753717 0.044201314 0.06987068
0000b0 64 b3 f5 3d b8 c9 25 bd 76 17 43 be 82 21 23 be
       0.11997107 -0.040475577 -0.19051918 -0.15930751
0000c0 4c 80 e7 3d 12 2b 7f be 7c e3 3c 3e b6 41 1b 3e
       0.113037676 -0.24918774 0.18446153 0.15161785
0000d0 48 3b c8 3d d8 96 72 3e 10 8b 45 be 20 b2 3e bd
       0.09776932 0.23690355 -0.1929133 -0.046556592
0000e0 b6 40 46 3e e0 a7 39 3c 04 5a c2 3d 6e 75 23 be
       0.19360623 0.011331528 0.09489825 -0.15962765
0000f0 40 13 d0 bd 58 14 ff 3d 80 37 2e bb 3c ef 41 3e
       -0.10159922 0.12455052 -0.0026583374 0.18938917
000100 c8 09 36 bd 4e 02 5c 3e 84 5c 07 be 28 9d 96 bd
       -0.044442922 0.21485254 -0.13218886 -0.07354194
000110 82 26 07 3e 92 09 0d be 86 ab 76 3e de bc 30 3e
       0.13198283 -0.13773182 0.24088868 0.17259547
000120 14 0d 05 be b0 03 b8 3c 44 b6 76 3e 90 fa 72 3d
       -0.1299327 0.022462696 0.24092966 0.059320986
000130 44 16 dd bd 80 cd 5e be 50 90 37 3d 30 bc 25 be
       -0.107952625 -0.2175808 0.04481536 -0.16185069
000140 84 07 99 bd bc 8f 56 be 20 56 d5 bc 96 46 69 3e
       -0.074721366 -0.20953268 -0.026042044 0.22780833
000150 8c 0f b0 bd 88 a5 37 3e 20 22 07 3e 70 f3 68 3d
       -0.08596715 0.17934239 0.13196611 0.056872785
000160 0e 2b 6b be 20 49 93 bc 6c e8 15 be 10 e4 ec 3c
       -0.22965643 -0.017979205 -0.14639443 0.028917342
000170 c6 b8 78 be d8 48 1c 3e b0 9f 38 3e 80 9e 31 bd
       -0.24289235 0.15262163 0.18029666 -0.043364048
000180 14 10 73 3e 6e a1 3f be 30 ff 62 bd b0 a1 b6 bc
       0.23736602 -0.18713924 -0.055419147 -0.022293895
000190 a0 4b b5 bd 6a 6c 66 be c4 54 a0 3d 60 40 e9 bd
       -0.08852315 -0.22502294 0.07828668 -0.11389232
0001a0 18 77 60 3e d8 a8 f1 bd e4 9e 20 3e fe a3 76 be
       0.2192043 -0.117997825 0.15685612 -0.24085996
0001b0 62 d8 38 be 68 ed d2 3d 1c a3 73 3e 0c c7 f8 3d
       -0.18051293 0.10299188 0.2379269 0.1214734
0001c0 80 d8 3a 3e 7c 0b 11 3e ac 6b d9 3d 62 0f 5a be
       0.1824665 0.14164537 0.1061624 -0.2129493
0001d0 9a 5a 77 3e 40 87 b4 3b 3c 70 47 be b0 62 c8 bc
       0.24155656 0.005509287 -0.19476408 -0.02446112
0001e0 fe 66 13 3e d0 32 20 3d a2 97 57 be 48 de 52 be
       0.14394757 0.03911096 -0.21053937 -0.20592606
0001f0 8e b6 20 be 6a 80 1a 3e 90 ed d0 bd 44 82 06 3e
       -0.15694639 0.15088049 -0.102015615 0.1313563

1.bias f4 [8]
000000 c0 48 2b 3e e4 61 a5 3d 84 e8 01 be 36 75 0b be
       0.1672697 0.08075312 -0.12686354 -0.13618931
000010 06 66 47 be 48 c9 08 3e c2 ff 6c be a0 e4 4c 3d
       -0.19472513 0.13358033 -0.23144439 0.05002272

onnx::MatMul_7 f4 [8, 16]
000000 8a 1d 21 3d ce 3f 05 be 0d 53 05 be 05 a2 45 3c
       0.03933481 -0.13012621 -0.13019963 0.012062554
000010 89 cb 88 be 73 95 36 be 36 89 2f 3d 7c 26 96 3e
       -0.26717785 -0.17830448 0.042855464 0.29326236
000020 8c 3c 7c 3e 83 03 84 3e ab 19 c3 3d 77 96 73 bd
       0.24632472 0.2578393 0.0952638 -0.059469666
000030 c0 a2 34 bd d0 da 98 be 15 82 83 be 23 23 04 be
       -0.044100523 -0.2985444 -0.25685182 -0.12904029
000040 47 5a 8b be 47 37 17 be d9 92 97 be ae 39 55 3d
       -0.27217314 -0.1476718 -0.29604223 0.05205696
000050 a9 07 04 3d 67 0e b4 3e 20 9e 82 3e f2 11 b1 be
       0.032233868 0.35167238 0.25511265 -0.34584004
000060 87 fe 02 be 87 0d 8e be ec 5d 70 3e ae 7b 41 bd
       -0.12792407 -0.27744696 0.23473328 -0.04723709
000070 7e 99 0e 3d 7c 93 d9 bd 82 f6 47 3d 31 61 6e be
       0.03481435 -0.106238335 0.048819073 -0.23279263
000080 fe 2b 51 3e 0d 52 34 bb 09 76 3d 3e e5 b6 ab be
       0.20426938 -0.0027514726 0.18502058 -0.33537975
000090 0e 40 94 be be b9 79 3d 67 1c 29 3e 5e d1 b1 3e
       -0.2895512 0.060968153 0.16514741 0.34730047
0000a0 b2 04 a2 3d 2f b8 8b 3e 8f 2f 92 bd 0e e7 16 bd
       0.07911052 0.27288958 -0.07137977 -0.036841445
0000b0 14 e0 ad be e3 b3 71 3e a8 0a 6d 3e a9 d6 ff bd
       -0.3396002 0.23603778 0.23148596 -0.12492115
0000c0 d5 e4 7b be fa 79 91 3e 21 6a 9c 3e d3 45 6c 3e
       -0.24599011 0.28413373 0.3054972 0.23073511
0000d0 d4 df 90 be c0 1e 93 3e 48 9f 90 be b3 45 30 3e
       -0.28295767 0.28734398 -0.28246522 0.17214088
0000e0 9f c8 39 3d af f2 6b be 06 71 53 bc 90 4e 29 be
       0.045357343 -0.23041795 -0.012905365 -0.16533875
0000f0 69 aa 53 3e ff c8 a3 3e 39 b8 8b bd 8c e6 80 be
       0.20670475 0.31989285 -0.06822247 -0.25175893
000100 96 d4 3d be 54 d1 ef 3d 26 ed 7e 3e a0 89 8d be
       -0.18538126 0.11709848 0.24895152 -0.27644062
000110 7c dc 74 3d f2 e6 e6 bb 15 e1 7e be 91 13 89 3d
       0.059780583 -0.007046574 -0.2489055 0.06693185
000120 6c 5b a3 3e bb d4 97 3e 96 30 9e 3e 26 38 ec bd
       0.31905687 0.29654488 0.30896443 -0.11534147
000130 7c aa b2 3e 4b 45 6e 3e 33 0f 64 bd 02 6c 92 3e
       0.34895694 0.2326862 -0.055678558 0.28598028
000140 0d 90 48 be 4a 76 1f be 36 10 9a 3e 70 d8 38 3e
       -0.19586201 -0.15572467 0.30090493 0.18051314
000150 fd 54 30 bc ad 60 63 bd f9 7e ae 3e f3 56 2b 3e
       -0.01076245 -0.05551212 0.34081247 0.16732387
000160 61 ec d1 3c cb bc 14 be 06 52 70 3e b5 09 a9 3e
       0.02562541 -0.14525144 0.2346879 0.33015218
000170 08 26 63 bd b4 00 01 3e ae f1 aa be f5 dc b3 3e
       -0.05545619 0.12597924 -0.33387512 0.35129514
000180 23 25 02 3e 49 44 86 3e a7 6f 05 be be ac 7b 3e
       0.12709479 0.26223972 -0.13030873 0.24577615
000190 cd 10 51 3e 58 29 b9 3d cc 8a a5 be 7e 1b a8 3d
       0.20416565 0.09041089 -0.32332456 0.08208369
0001a0 36 67 36 3b 97 32 22 3d 32 8e a4 3e 0a ae 9b 3c
       0.0027832515 0.039599027 0.32139736 0.019003887
0001b0 81 95 12 3e 70 18 35 bd 3c ec a9 3e 6e 60 09 be
       0.14314844 -0.04421276 0.33188045 -0.13415691
0001c0 f6 7a ab 3e 04 b2 19 be c5 f5 5a bc a8 5f a0 be
       0.3349225 -0.15009314 -0.01336426 -0.3132298
0001d0 2c c8 a9 bc 18 02 77 3e fb 12 b9 3b 06 21 e1 3d
       -0.020725332 0.24121892 0.0056480146 0.10992627
0001e0 a5 b7 51 3e 95 78 5b 3b 34 01 2d 3e 72 33 ab be
       0.20480211 0.003348862 0.1689499 -0.33437687
0001f0 78 6b 93 3e 8c d8 25 be 68 30 80 3e 77 1c 5e be
       0.2879293 -0.16195887 0.2503693 -0.21690546
