tools/Polygraphy/tests/models/matmul.bf16.onnx (onnx, 413 bytes, 1 tensors)

b bf16 [16, 8]
0	0xbeaf	-0.34179688
1	0xbe0b	-0.13574219
2	0xbfad	-1.3515625
3	0xc002	-2.03125
4	0xbfc4	-1.53125
5	0xbfc7	-1.5546875
6	0x3f0f	0.55859375
7	0xbfac	-1.34375
8	0x3f2d	0.67578125
9	0xbf5b	-0.85546875
10	0x4022	2.53125
11	0x3fe2	1.765625
12	0x4016	2.34375
13	0x3fce	1.609375
14	0x3ef3	0.47460938
15	0xbe78	-0.2421875
16	0xc022	-2.53125
17	0xbfb9	-1.4453125
18	0x3f25	0.64453125
19	0xbf10	-0.5625
20	0xbf8c	-1.09375
21	0xbfec	-1.84375
22	0x4013	2.296875
23	0x3fee	1.859375
24	0x3fea	1.828125
25	0xbf8f	-1.1171875
26	0x3fca	1.578125
27	0x3f2f	0.68359375
28	0xbed0	-0.40625
29	0xbf48	-0.78125
30	0xbf33	-0.69921875
31	0xbfc6	-1.546875
32	0xc01c	-2.4375
33	0x3f83	1.0234375
34	0xbfe0	-1.75
35	0x3cf0	0.029296875
36	0xbfe9	-1.8203125
37	0x3ef7	0.48242188
38	0x3f8c	1.09375
39	0xbff4	-1.90625
40	0x3fe8	1.8125
41	0xc03d	-2.953125
42	0xbe04	-0.12890625
43	0x3f08	0.53125
44	0xc009	-2.140625
45	0x3e0f	0.13964844
46	0xbd9f	-0.07763672
47	0x3ee3	0.44335938
48	0xbcdb	-0.026733398
49	0x3faf	1.3671875
50	0x3fb4	1.40625
51	0xc038	-2.875
52	0xbf70	-0.9375
53	0xc030	-2.75
54	0x3ec3	0.38085938
55	0xbece	-0.40234375
56	0x3f00	0.5
57	0x4006	2.09375
58	0xc038	-2.875
59	0x3bef	0.007293701
60	0xbfa5	-1.2890625
61	0xbee5	-0.44726562
62	0x401e	2.46875
63	0xbfa2	-1.265625
64	0x3eb0	0.34375
65	0x402b	2.671875
66	0xbfa9	-1.3203125
67	0xbf6d	-0.92578125
68	0xc00c	-2.1875
69	0x4012	2.28125
70	0xc006	-2.09375
71	0xbf4a	-0.7890625
72	0x3f81	1.0078125
73	0xbeb9	-0.36132812
74	0x3f82	1.015625
75	0x3f81	1.0078125
76	0xbecb	-0.39648438
77	0x4020	2.5
78	0x3fe3	1.7734375
79	0xbefa	-0.48828125
80	0x4026	2.59375
81	0x3fcd	1.6015625
82	0xbfca	-1.578125
83	0xbff0	-1.875
84	0xbf98	-1.1875
85	0xbc85	-0.016235352
86	0xc01c	-2.4375
87	0x403d	2.953125
88	0x3f87	1.0546875
89	0xbf11	-0.56640625
90	0xbfb0	-1.375
91	0x4013	2.296875
92	0x4036	2.84375
93	0x3fd3	1.6484375
94	0x3fdb	1.7109375
95	0xbfa7	-1.3046875
96	0xbfab	-1.3359375
97	0xbf9d	-1.2265625
98	0x3e76	0.24023438
99	0x3e10	0.140625
100	0x403f	2.984375
101	0xbe9c	-0.3046875
102	0xc027	-2.609375
103	0x3fb1	1.3828125
104	0xc038	-2.875
105	0x4035	2.828125
106	0xbf16	-0.5859375
107	0x3eee	0.46484375
108	0xbf4d	-0.80078125
109	0xbfa1	-1.2578125
110	0x3fa0	1.25
111	0x401b	2.421875
112	0xc00a	-2.15625
113	0x4010	2.25
114	0x3eab	0.33398438
115	0xbf89	-1.0703125
116	0xbff0	-1.875
117	0xbe09	-0.13378906
118	0xc007	-2.109375
119	0x4005	2.078125
120	0x3fb4	1.40625
121	0xbfa7	-1.3046875
122	0x401a	2.40625
123	0xbf57	-0.83984375
124	0x402e	2.71875
125	0x3f83	1.0234375
126	0xbf1a	-0.6015625
127	0xc022	-2.53125
