tools/Polygraphy/tests/models/transpose_matmul.onnx (onnx, 706 bytes, 1 tensors)

b f4 [8, 16]
0	0x3e8f14ee	0.27945656
1	0xbe719e5b	-0.23595564
2	0xc024bd27	-2.574045
3	0x3fde3202	1.7359011
4	0x3f459926	0.7718681
5	0x3fc2098f	1.5159167
6	0x3fd96b8b	1.6985945
7	0x3f4e2a7f	0.80533594
8	0xbeaa6a14	-0.33284056
9	0xbf105658	-0.5638175
10	0xbf456d02	-0.7711946
11	0xc0244e45	-2.5672772
12	0xbfe562e2	-1.7920802
13	0x3e826f2d	0.25475445
14	0x40188270	2.3829613
15	0xc009b89e	-2.1518931
16	0x3e9d4dca	0.3072341
17	0x3fb10754	1.3830361
18	0xbfbe106f	-1.4848765
19	0xbf819118	-1.0122404
20	0x3fbbf4b9	1.4684058
21	0x3e61e486	0.22059831
22	0x4000722a	2.006968
23	0x3fe18386	1.7618263
24	0xc01f28bf	-2.486862
25	0xc017ce9f	-2.3719862
26	0xbf59d00c	-0.8508308
27	0x3ea42046	0.32055873
28	0xbec663f2	-0.38748127
29	0x4001dcbd	2.0290978
30	0x401ee31d	2.482612
31	0x3f00ece3	0.5036146
32	0xbf6132b3	-0.87967986
33	0xbfe2c838	-1.7717352
34	0x3ffca281	1.9737092
35	0x3f9be504	1.2179265
36	0xbfee876b	-1.8635076
37	0x3fdec52b	1.7403921
38	0xbfe22d03	-1.7669986
39	0xbe4bfef6	-0.19921479
40	0xbf37ef72	-0.7184974
41	0xc03560d2	-2.8340344
42	0xbfe0b143	-1.7554096
43	0x402a5a42	2.661759
44	0x3fa48563	1.2853206
45	0x4031aa6b	2.7760265
46	0xbf0113de	-0.5042094
47	0xbf920b5a	-1.1409714
48	0xbf04d6b1	-0.51890093
49	0x4026da85	2.6070874
50	0xbf05d4fe	-0.52278125
51	0x3f3daa17	0.7408766
52	0x3fa602b2	1.2969573
53	0xbf51ebde	-0.8200053
54	0x3f2beab0	0.6715498
55	0xc015d59d	-2.341163
56	0x3eb05d7b	0.3444632
57	0x3ff9373f	1.9469985
58	0x3f940e2e	1.1566827
59	0xbf0de0bf	-0.5542106
60	0x3f938dd9	1.1527663
61	0x40249b9f	2.5719984
62	0x3fa44355	1.2833048
63	0x3fbf6375	1.4952227
64	0x3f7ec6a6	0.99521863
65	0x3fc31d97	1.5243405
66	0xbfe1ea66	-1.7649658
67	0x402b8c25	2.6804287
68	0xbf16b6f2	-0.588729
69	0xbe5f31b9	-0.21796311
70	0x402ee228	2.7325535
71	0x3fe841a7	1.8145036
72	0xbff417b1	-1.906973
73	0xbf07a142	-0.52980435
74	0xbda826dc	-0.08210537
75	0x3febd453	1.8424171
76	0xc0155195	-2.3331044
77	0x3fcaafb0	1.5834866
78	0xbfc93240	-1.571846
79	0xbf51fe63	-0.8202879
80	0xc030f430	-2.764904
81	0x400dec04	2.2175303
82	0x3fe3d186	1.7798316
83	0xbd9ae369	-0.07562906
84	0x3fddc030	1.7324276
85	0x3f3429e3	0.70376414
86	0xc01d2b8e	-2.4557834
87	0x4034b9b3	2.8238342
88	0x3eb2c583	0.34916314
89	0x401be89a	2.4360719
90	0xc014b6bc	-2.3236532
91	0xbfcb67d0	-1.5891056
92	0xbfae1187	-1.3599099
93	0xbfab91d1	-1.3403875
94	0xbfe48c52	-1.7855322
95	0x3f88d373	1.0689529
96	0x3ec788a6	0.38971442
97	0x4038e76f	2.8891256
98	0x4012ed65	2.2957394
99	0x4025a723	2.5883262
100	0xbf245544	-0.64192605
101	0x3e2d8e40	0.16948795
102	0xc022f486	-2.5461745
103	0x3fe77ce7	1.8084992
104	0xbea9c2f9	-0.33156565
105	0xc02df370	-2.7179832
106	0x3f33281f	0.69983095
107	0xbfb40043	-1.406258
108	0xc0081f59	-2.1269133
109	0x3fd1ec24	1.6400189
110	0xbfce85da	-1.6134598
111	0x3f8f024a	1.1172574
112	0x403bd25c	2.9347143
113	0xbe7cd148	-0.2468921
114	0xc02f851f	-2.7425
115	0xbf93e473	-1.1554092
116	0x3f41dec3	0.7573053
117	0xbf49fd34	-0.7890198
118	0x3f71dc4c	0.9447677
119	0xbf88a232	-1.0674498
120	0xbfa47bc6	-1.2850273
121	0x3fb6236a	1.4229558
122	0xc03bbe8f	-2.9335058
123	0x3ec26d1a	0.37973863
124	0x3fc3491d	1.5256687
125	0xbfc27c2f	-1.5194148
126	0xbfb88656	-1.4415996
127	0xc01bf9ef	-2.4371297
